…
 lr                         | 0.0005     
 main_metric                |            
 num_neg                    | 0          
 num_workers                | 5          
 optimizer                  | Adam       
 random_seed                | 0          
 save_final_results         | 1          
 test_all                   | 0          
 topk                       | 5,10,20,50 
==========================================
INFO:root:Device: cuda
INFO:root:Load corpus from ../data/ML_1MCTR/ContextSeqReader_context101.pkl
INFO:root:#params: 1601666
INFO:root:DIENCTR(
  (loss_fn): BCELoss()
  (embedding_dict): ModuleDict(
    (user_id): Embedding(6035, 64)
    (item_id): Embedding(3126, 64)
    (i_genre_c): Embedding(298, 64)
    (i_title_c): Embedding(3126, 64)
    (c_day_f): Linear(in_features=1, out_features=64, bias=False)
    (c_hour_c): Embedding(24, 64)
    (c_period_c): Embedding(9, 64)
    (c_weekday_c): Embedding(7, 64)
  )
  (gru): GRU(192, 192, batch_first=True)
  (evolving_gru): GRU(192, 192, batch_first=True)
  (fcn_net): MLP_Block(
    (mlp): Sequential(
      (0): Linear(in_features=1088, out_features=256, bias=True)
      (1): ReLU()
      (2): Dropout(p=0.2, inplace=False)
      (3): Linear(in_features=256, out_features=1, bias=True)
    )
  )
  (aux_net): MLP_Block(
    (mlp): Sequential(
      (0): Linear(in_features=384, out_features=64, bias=True)
      (1): ReLU()
      (2): Dropout(p=0.2, inplace=False)
      (3): Linear(in_features=64, out_features=64, bias=True)
      (4): ReLU()
      (5): Dropout(p=0.2, inplace=False)
      (6): Linear(in_features=64, out_features=64, bias=True)
      (7): ReLU()
      (8): Dropout(p=0.2, inplace=False)
      (9): Linear(in_features=64, out_features=1, bias=True)
      (10): Sigmoid()
    )
  )
  (aux_fn): BCELoss()
)
INFO:root:Test Before Training: (AUC@All:0.4980,LOG_LOSS@All:0.6871)
INFO:root:Optimizer: Adam
INFO:root:Epoch 1     loss=0.9062 [40.0 s]	dev=(AUC@All:0.7801,LOG_LOSS@All:0.5702) [0.3 s] *
INFO:root:Epoch 2     loss=0.8879 [44.0 s]	dev=(AUC@All:0.7768,LOG_LOSS@All:0.5649) [0.3 s]
INFO:root:Epoch 3     loss=0.8863 [44.4 s]	dev=(AUC@All:0.7760,LOG_LOSS@All:0.5655) [0.4 s]
…
