…
 num_neg                    | 0          
 num_workers                | 5          
 optimizer                  | Adam       
 random_seed                | 0          
 save_final_results         | 1          
 test_all                   | 0          
 time_emb_size              | 16         
 topk                       | 5,10,20,50 
 use_time_mode              | concat     
==========================================
INFO:root:Device: cuda
INFO:root:Load corpus from ../data/MINDCTR/ContextSeqReader_context101.pkl
INFO:root:#params: 2316865
INFO:root:DARECTR(
  (loss_fn): BCELoss()
  (embedding_dict_att): ModuleDict(
    (user_id): Embedding(13115, 64)
    (item_id): Embedding(952, 64)
    (i_category_c): Embedding(15, 64)
    (i_subcategory_c): Embedding(112, 64)
    (c_day_f): Linear(in_features=1, out_features=64, bias=False)
    (c_hour_c): Embedding(24, 64)
    (c_period_c): Embedding(9, 64)
    (c_weekday_c): Embedding(5, 64)
  )
  (embedding_dict_rep): ModuleDict(
    (user_id): Embedding(13115, 64)
    (item_id): Embedding(952, 64)
    (i_category_c): Embedding(15, 64)
    (i_subcategory_c): Embedding(112, 64)
    (c_day_f): Linear(in_features=1, out_features=64, bias=False)
    (c_hour_c): Embedding(24, 64)
    (c_period_c): Embedding(9, 64)
    (c_weekday_c): Embedding(5, 64)
  )
  (dnn_mlp_layers): MLP_Block(
    (mlp): Sequential(
      (0): Linear(in_features=896, out_features=512, bias=True)
      (1): BatchNorm1d(512, eps=1e-05, momentum=0.1, affine=True, track_running_stats=True)
      (2): Dice(
        (bn): BatchNorm1d(512, eps=1e-08, momentum=0.1, affine=True, track_running_stats=True)
        (sigmoid): Sigmoid()
      )
      (3): Dropout(p=0.5, inplace=False)
      (4): Linear(in_features=512, out_features=64, bias=True)
      (5): BatchNorm1d(64, eps=1e-05, momentum=0.1, affine=True, track_running_stats=True)
      (6): Dice(
        (bn): BatchNorm1d(64, eps=1e-08, momentum=0.1, affine=True, track_running_stats=True)
        (sigmoid): Sigmoid()
      )
      (7): Dropout(p=0.5, inplace=False)
      (8): Linear(in_features=64, out_features=1, bias=True)
    )
  )
)
INFO:root:Test Before Training: (AUC@All:0.4900,LOG_LOSS@All:0.6847)
INFO:root:Optimizer: Adam
INFO:root:Epoch 1     loss=0.2073 [75.0 s]	dev=(AUC@All:0.7422,LOG_LOSS@All:0.1743) [33.2 s] *
INFO:root:Epoch 2     loss=0.1650 [71.9 s]	dev=(AUC@All:0.7225,LOG_LOSS@All:0.1764) [34.4 s]
INFO:root:Epoch 3     loss=0.1586 [71.3 s]	dev=(AUC@All:0.7189,LOG_LOSS@All:0.1921) [34.3 s]
…
