…
 num_neg                    | 0          
 num_workers                | 5          
 optimizer                  | Adam       
 random_seed                | 0          
 save_final_results         | 1          
 test_all                   | 0          
 time_emb_size              | 16         
 topk                       | 5,10,20,50 
 use_time_mode              | concat     
==========================================
INFO:root:Device: cuda
INFO:root:Load corpus from ../data/ML_1MCTR/ContextSeqReader_context101.pkl
INFO:root:#params: 2111169
INFO:root:DARECTR(
  (loss_fn): BCELoss()
  (embedding_dict_att): ModuleDict(
    (user_id): Embedding(6035, 64)
    (item_id): Embedding(3126, 64)
    (i_genre_c): Embedding(298, 64)
    (i_title_c): Embedding(3126, 64)
    (c_day_f): Linear(in_features=1, out_features=64, bias=False)
    (c_hour_c): Embedding(24, 64)
    (c_period_c): Embedding(9, 64)
    (c_weekday_c): Embedding(7, 64)
  )
  (embedding_dict_rep): ModuleDict(
    (user_id): Embedding(6035, 64)
    (item_id): Embedding(3126, 64)
    (i_genre_c): Embedding(298, 64)
    (i_title_c): Embedding(3126, 64)
    (c_day_f): Linear(in_features=1, out_features=64, bias=False)
    (c_hour_c): Embedding(24, 64)
    (c_period_c): Embedding(9, 64)
    (c_weekday_c): Embedding(7, 64)
  )
  (dnn_mlp_layers): MLP_Block(
    (mlp): Sequential(
      (0): Linear(in_features=896, out_features=512, bias=True)
      (1): BatchNorm1d(512, eps=1e-05, momentum=0.1, affine=True, track_running_stats=True)
      (2): Dice(
        (bn): BatchNorm1d(512, eps=1e-08, momentum=0.1, affine=True, track_running_stats=True)
        (sigmoid): Sigmoid()
      )
      (3): Dropout(p=0.5, inplace=False)
      (4): Linear(in_features=512, out_features=64, bias=True)
      (5): BatchNorm1d(64, eps=1e-05, momentum=0.1, affine=True, track_running_stats=True)
      (6): Dice(
        (bn): BatchNorm1d(64, eps=1e-08, momentum=0.1, affine=True, track_running_stats=True)
        (sigmoid): Sigmoid()
      )
      (7): Dropout(p=0.5, inplace=False)
      (8): Linear(in_features=64, out_features=1, bias=True)
    )
  )
)
INFO:root:Test Before Training: (AUC@All:0.5004,LOG_LOSS@All:0.6935)
INFO:root:Optimizer: Adam
INFO:root:Epoch 1     loss=0.5579 [23.4 s]	dev=(AUC@All:0.7749,LOG_LOSS@All:0.5707) [0.4 s] *
INFO:root:Epoch 2     loss=0.5331 [22.0 s]	dev=(AUC@All:0.7736,LOG_LOSS@All:0.5720) [0.3 s]
INFO:root:Epoch 3     loss=0.5268 [18.4 s]	dev=(AUC@All:0.7709,LOG_LOSS@All:0.5924) [0.3 s]
…
