…
 lr                         | 0.0005     
 main_metric                |            
 num_neg                    | 0          
 num_workers                | 5          
 optimizer                  | Adam       
 random_seed                | 0          
 save_final_results         | 1          
 test_all                   | 0          
 topk                       | 5,10,20,50 
==========================================
INFO:root:Device: cuda
INFO:root:Load corpus from ../data/ML_1MCTR/ContextSeqReader_context101.pkl
INFO:root:#params: 1352386
INFO:root:DINCTR(
  (loss_fn): BCELoss()
  (embedding_dict): ModuleDict(
    (user_id): Embedding(6035, 64)
    (item_id): Embedding(3126, 64)
    (i_genre_c): Embedding(298, 64)
    (i_title_c): Embedding(3126, 64)
    (c_day_f): Linear(in_features=1, out_features=64, bias=False)
    (c_hour_c): Embedding(24, 64)
    (c_period_c): Embedding(9, 64)
    (c_weekday_c): Embedding(7, 64)
  )
  (att_mlp_layers): MLP_Block(
    (mlp): Sequential(
      (0): Linear(in_features=768, out_features=64, bias=True)
      (1): Sigmoid()
      (2): Dropout(p=0.5, inplace=False)
      (3): Linear(in_features=64, out_features=1, bias=True)
    )
  )
  (dnn_mlp_layers): MLP_Block(
    (mlp): Sequential(
      (0): Linear(in_features=896, out_features=512, bias=True)
      (1): BatchNorm1d(512, eps=1e-05, momentum=0.1, affine=True, track_running_stats=True)
      (2): Dice(
        (bn): BatchNorm1d(512, eps=1e-08, momentum=0.1, affine=True, track_running_stats=True)
        (sigmoid): Sigmoid()
      )
      (3): Dropout(p=0.5, inplace=False)
      (4): Linear(in_features=512, out_features=64, bias=True)
      (5): BatchNorm1d(64, eps=1e-05, momentum=0.1, affine=True, track_running_stats=True)
      (6): Dice(
        (bn): BatchNorm1d(64, eps=1e-08, momentum=0.1, affine=True, track_running_stats=True)
        (sigmoid): Sigmoid()
      )
      (7): Dropout(p=0.5, inplace=False)
      (8): Linear(in_features=64, out_features=1, bias=True)
    )
  )
)
INFO:root:Test Before Training: (AUC@All:0.4936,LOG_LOSS@All:0.6938)
INFO:root:Optimizer: Adam
INFO:root:Epoch 1     loss=0.5589 [22.5 s]	dev=(AUC@All:0.7803,LOG_LOSS@All:0.5668) [0.3 s] *
INFO:root:Epoch 2     loss=0.5352 [18.5 s]	dev=(AUC@All:0.7735,LOG_LOSS@All:0.6017) [0.3 s]
INFO:root:Epoch 3     loss=0.5300 [20.8 s]	dev=(AUC@All:0.7745,LOG_LOSS@All:0.5991) [0.3 s]
…
