…
 lr                         | 0.0001     
 main_metric                |            
 num_neg                    | 0          
 num_workers                | 5          
 optimizer                  | Adam       
 random_seed                | 0          
 save_final_results         | 1          
 test_all                   | 0          
 topk                       | 5,10,20,50 
==========================================
INFO:root:Device: cuda
INFO:root:Load corpus from ../data/MINDCTR/ContextSeqReader_context101.pkl
INFO:root:#params: 1055330
INFO:root:DINCTR(
  (loss_fn): BCELoss()
  (embedding_dict): ModuleDict(
    (user_id): Embedding(13115, 64)
    (item_id): Embedding(952, 64)
    (i_category_c): Embedding(15, 64)
    (i_subcategory_c): Embedding(112, 64)
    (c_day_f): Linear(in_features=1, out_features=64, bias=False)
    (c_hour_c): Embedding(24, 64)
    (c_period_c): Embedding(9, 64)
    (c_weekday_c): Embedding(5, 64)
  )
  (att_mlp_layers): MLP_Block(
    (mlp): Sequential(
      (0): Linear(in_features=768, out_features=32, bias=True)
      (1): Sigmoid()
      (2): Dropout(p=0.5, inplace=False)
      (3): Linear(in_features=32, out_features=1, bias=True)
    )
  )
  (dnn_mlp_layers): MLP_Block(
    (mlp): Sequential(
      (0): Linear(in_features=896, out_features=128, bias=True)
      (1): BatchNorm1d(128, eps=1e-05, momentum=0.1, affine=True, track_running_stats=True)
      (2): Dice(
        (bn): BatchNorm1d(128, eps=1e-08, momentum=0.1, affine=True, track_running_stats=True)
        (sigmoid): Sigmoid()
      )
      (3): Dropout(p=0.5, inplace=False)
      (4): Linear(in_features=128, out_features=32, bias=True)
      (5): BatchNorm1d(32, eps=1e-05, momentum=0.1, affine=True, track_running_stats=True)
      (6): Dice(
        (bn): BatchNorm1d(32, eps=1e-08, momentum=0.1, affine=True, track_running_stats=True)
        (sigmoid): Sigmoid()
      )
      (7): Dropout(p=0.5, inplace=False)
      (8): Linear(in_features=32, out_features=1, bias=True)
    )
  )
)
INFO:root:Test Before Training: (AUC@All:0.5371,LOG_LOSS@All:0.6970)
INFO:root:Optimizer: Adam
INFO:root:Epoch 1     loss=0.2922 [84.0 s]	dev=(AUC@All:0.7411,LOG_LOSS@All:0.1767) [11.7 s] *
INFO:root:Epoch 2     loss=0.1679 [81.2 s]	dev=(AUC@All:0.7390,LOG_LOSS@All:0.1775) [15.3 s]
INFO:root:Epoch 3     loss=0.1586 [82.9 s]	dev=(AUC@All:0.7378,LOG_LOSS@All:0.1824) [11.3 s]
…
